decoder.pt (torch_old, 214431 bytes, 6 tensors)

l1.weight f4 [32, 8]
000000 15 35 02 3f 11 39 63 bf 8a 75 08 3f 4f ba a0 be
       0.50862247 -0.8875895 0.5330435 -0.31392142
000010 5e 0a 01 3e e6 09 31 3e 4f c1 69 3f 10 16 23 3c
       0.12601611 0.17288932 0.9131059 0.009953991
000020 27 96 38 3f 4e e4 f3 3c a4 52 13 bf c2 f0 0f bf
       0.72104114 0.02977195 -0.57547975 -0.5622674
000030 c8 11 2b be a0 97 6d be 67 eb 3d 3e eb 73 cc 3e
       -0.16706002 -0.23202372 0.1854683 0.39932188
000040 d6 bb 98 3f 04 84 8f 3e 48 80 b7 be 6c 47 ac 3f
       1.1932323 0.28030407 -0.35840058 1.3459296
000050 1a 7b 5a 3d 3d 57 b1 3c d2 ce 9e 3d 7c 16 64 bf
       0.053340055 0.021648044 0.077542916 -0.8909681
000060 ed 8e 66 3f 00 a6 94 3d 36 74 9f be 72 c9 8d bd
       0.9006184 0.072582245 -0.3114335 -0.06923188
000070 07 58 7d 3f 21 96 72 be 16 79 ab 3f b6 b8 cb be
       0.98962444 -0.23690082 1.3396327 -0.3978936
000080 d9 eb f5 3d 60 25 70 bf 03 b2 5f bf e1 d5 49 3e
       0.12007875 -0.9380703 -0.87381 0.19710495
000090 d1 59 da 3e 89 39 2e 3e 0d 5c 65 bf 5e 43 48 be
       0.4264665 0.17014135 -0.89593583 -0.19556949
0000a0 2e d7 0e bf 53 73 a9 3d 46 20 0b be 3d 81 0f c0
       -0.5579709 0.082739495 -0.1358653 -2.242263
0000b0 1b b0 c1 3f 5c 5f 91 3f d2 92 3f 3f 47 cf b8 3e
       1.5131868 1.1357226 0.74833405 0.3609564
0000c0 e0 2e 61 bd 21 c7 ad be c3 07 44 3f ad fc cf be
       -0.054976344 -0.33940986 0.76574343 -0.40622464
0000d0 6e 44 78 3e 3f cb 38 bf 4c 44 df bd 20 5c 53 3f
       0.24244854 -0.7218513 -0.109016985 0.82562447
0000e0 e9 d6 d4 3e a9 9d e0 bd 79 e6 41 3e 8c 2a a4 bf
       0.41570213 -0.10967571 0.18935575 -1.2825484
0000f0 8b 6e 0d 3e 8f ce 37 3e eb 19 42 3e 11 f6 50 3e
       0.138117 0.1794989 0.189552 0.20406367
000100 79 41 0c bf d5 f7 c7 3e db 58 2f 3f 8a 4e 11 be
       -0.54787403 0.39056268 0.6849496 -0.14190117
000110 50 9c 90 3e 64 b0 85 3e e7 69 5d bd e0 56 fc bd
       0.28244257 0.26111138 -0.054056074 -0.123212576
000120 ff 24 8c 3e 02 57 e0 3e 60 5e e0 3e b9 76 00 be
       0.27371976 0.43816382 0.43822002 -0.12545289
000130 1e c5 d3 3e 72 26 2c bf d4 50 8c be 5f f5 19 bf
       0.41361326 -0.6724616 -0.27405417 -0.6014003
000140 75 80 c8 3e 25 ee 88 3e fb bf 9a be ab 44 80 3f
       0.39160505 0.2674419 -0.30224594 1.0020956
000150 ac 91 31 3f 4b be 01 3f 34 29 df bd fb 6b 24 bf
       0.693629 0.5068099 -0.10896531 -0.64227265
000160 61 71 4f bf c3 51 74 be 4c a8 6d 3e 59 70 83 bf
       -0.8103238 -0.23859315 0.23208731 -1.0268661
000170 8c 69 7d 3e 0d 40 35 3c a0 3c b6 3d 42 f9 0a 3f
       0.24747294 0.011062634 0.08898282 0.5428659
000180 b4 c1 25 be 77 3e 2b 3d 54 3c c6 3e 97 7e 16 3f
       -0.16187173 0.041807618 0.38717902 0.5878691
000190 ee 0b a6 3e 05 65 a8 3d 60 a4 81 3e d5 c5 e4 3c
       0.32430977 0.08222393 0.2532072 0.027926365
0001a0 01 e5 34 3e 40 a8 1f 3f f0 95 fc 3e 7b 10 84 bf
       0.17665483 0.62366104 0.49333143 -1.031753
0001b0 45 c8 8f bd 28 91 12 bf 3f 51 ff 3f a9 a8 ac bd
       -0.0702062 -0.5725274 1.9946669 -0.08430607
0001c0 41 d3 8a 3b c4 31 11 be ff fe 25 3f c3 e9 63 3f
       0.004236609 -0.1417914 0.6484222 0.8902857
0001d0 90 6e 10 3e 1d 91 8e 3f 73 ac a6 be 26 ea 31 be
       0.14104676 1.1138035 -0.32553443 -0.17374477
0001e0 61 0e b3 3e 68 6d 30 bf 2c db 01 3f c1 6d 07 bd
       0.34971908 -0.6891694 0.50725055 -0.033063654
0001f0 b3 93 3e 3f 3d 73 5a 3f 06 06 db be b5 59 82 3e
       0.7444412 0.8533209 -0.42778033 0.25459066
000200 de 70 d2 3e 9e ad 69 3e e8 2e 30 3f 24 11 d6 3f
       0.41101736 0.22820136 0.68821573 1.6723981
000210 5a 15 28 3f fb cd 7e be a5 e3 08 bf a9 be ae 3e
       0.6565758 -0.24883263 -0.5347236 0.34129837
000220 f7 8c 3b 3f ab 83 5a 3f 33 22 f5 be d9 41 41 bf
       0.7326197 0.8535716 -0.47877654 -0.754911
000230 0a e4 20 3f dd 64 c3 3e 48 79 3a bf fc 55 a3 3e
       0.6284796 0.3816289 -0.7284131 0.31901538
000240 04 22 b0 3e e7 f2 54 bf ab 72 40 3f e3 ae 47 bf
       0.34400952 -0.8318314 0.7517497 -0.7800123
000250 24 bd 8d be 38 58 a3 3f 64 ac ca be a0 0f 90 3e
       -0.27683365 1.2761297 -0.3958465 0.2813692
000260 08 c2 82 bf d5 69 38 bf ca 34 5a bf cc b5 6f be
       -1.0215464 -0.72036487 -0.852368 -0.23409194
000270 1d 11 a6 be 5f 7d a1 3f c1 76 12 be 77 31 19 3f
       -0.3243493 1.2616385 -0.14303114 0.598411
000280 fb 70 b7 be a9 65 08 bc ca 73 2e 3e d1 07 8b 3d
       -0.35828385 -0.008325019 0.17036358 0.067886
000290 ea bc 03 3f b8 5f 8f 3e 08 5b 27 3f a9 18 f4 3d
       0.51460135 0.28002715 0.6537328 0.11918766
0002a0 33 72 ae 3e 32 04 34 3f ca 0c 39 3c 5b 7f a2 3e
       0.34071502 0.703189 0.011294553 0.3173779
0002b0 43 90 76 3f 5a 5b a3 3e fe cf 0e 3f ff 25 93 be
       0.96313876 0.31905633 0.5578612 -0.28739926
0002c0 c6 66 f1 be f2 c0 48 3f 3f 12 55 bf 75 fc 4e 3f
       -0.47148722 0.7841941 -0.83230966 0.8085397
0002d0 0a 14 0c 3e 17 04 a2 bf 67 6e ee 3e 68 2d 98 3b
       0.1367952 -1.2657498 0.46568605 0.0046440847
0002e0 2f d0 5f be 78 92 16 be 0e 38 1b be e5 70 2d 3e
       -0.2185676 -0.14704311 -0.15158102 0.16937597
0002f0 e4 d4 a5 3e 74 3d ad 3c 6e d7 72 bd 29 d6 3c be
       0.32388985 0.021147467 -0.05928748 -0.1844107
000300 b8 5b 82 be 92 f6 56 3e c6 3f 9b be 0a 60 59 bc
       -0.254606 0.20992497 -0.30322093 -0.013267526
000310 5d 0a f6 3d 26 33 99 3e 6b 42 48 be 3f 56 03 bd
       0.120136954 0.29921836 -0.19556586 -0.032064673
000320 2d 20 7e be 55 50 90 be a1 9e 1a 3e 3d 41 d2 bd
       -0.24816962 -0.28186288 0.15099575 -0.102663495
000330 59 24 92 3f 94 91 7f 3d b4 91 3e bf 1a 3b be 3d
       1.1417342 0.062394693 -0.74441075 0.092886165
000340 96 11 b9 be b9 b1 60 be 2f be b8 be 9d da 5e 3f
       -0.3614623 -0.21942796 -0.360826 0.8705233
000350 8f 00 d5 bd 4a 91 1e 3e bd 29 84 3f e6 aa 97 bf
       -0.10400497 0.15485111 1.0325238 -1.1849029
000360 16 76 0b 3f 91 a9 40 3f d3 69 b4 3e df 09 00 3f
       0.5447706 0.7525874 0.35236987 0.5001506
000370 f9 c9 83 bf 74 5f bf bd 83 69 ae 3e fa a1 5c 3e
       -1.0296012 -0.09344378 0.34064874 0.21546164
000380 7f b4 0a bf fd e1 2f 3f 33 d3 08 3e ae cf 0b bf
       -0.54181665 0.68704206 0.13361816 -0.5461377
000390 ba 81 17 3f a8 e8 eb 3d c3 5c 8b 3f b7 f3 1c 3f
       0.5918232 0.11518985 1.0887684 0.6130938
0003a0 ba ed 67 3f b1 3a f3 be 1c 20 a1 3f 2f 90 31 40
       0.90597117 -0.47505715 1.2587924 2.7744253
0003b0 af eb f6 bf 4a 5c e2 bf 43 b0 fe be 5c 46 7f be
       -1.9290675 -1.7684414 -0.49743852 -0.24929184
0003c0 31 a4 e8 bd 04 67 f9 3b f7 ee b8 be f3 f7 2b be
       -0.11359442 0.0076111574 -0.36119816 -0.16793804
0003d0 81 d7 11 3f 28 55 8a bb 42 7a 27 bd c4 de d9 3d
       0.5696946 -0.004221577 -0.04088808 0.10638192
0003e0 3c 65 93 3d cf c6 d6 be 13 c8 f6 3e a8 18 b3 be
       0.07197043 -0.41948554 0.4819952 -0.3497975
0003f0 5e 34 0c 3f 25 9e 50 3f c3 e1 7f bd 98 b9 d5 be
       0.54767406 0.8149131 -0.062471163 -0.4174316

l1.bias f4 [32]
000000 63 22 df 3e d9 1d 5c 3f cb 88 2d 3d 04 b4 13 3f
       0.43580922 0.85983044 0.042366784 0.5769656
000010 8e b8 43 3f ef a6 a2 3f d7 39 50 3f 59 f6 22 3f
       0.76453483 1.2707194 0.81338257 0.63657147
000020 bf ea 86 3f 8e 84 06 3f 41 18 41 be 5c d9 f3 3d
       1.0540389 0.5254601 -0.18856908 0.119066924
000030 66 be 8b be bb db ed 3e de 24 07 bf f1 56 02 3f
       -0.272937 0.46456704 -0.5279063 0.5091391
000040 e4 92 a1 3f 16 bd 76 3f 7c 94 c5 3e 75 0d 57 3d
       1.2622952 0.9638227 0.38589847 0.052503068
000050 00 f1 c5 3f 52 0d 93 3d 29 36 87 3d d0 ec ac be
       1.5464172 0.07180275 0.06602127 -0.33774424
000060 a5 0c 58 bd cb d0 62 be ce fd 82 3f 68 b3 78 3f
       -0.052746434 -0.2214996 1.0233705 0.9714875
000070 1a 66 64 bd 10 a6 5f 3e f9 c3 75 be e2 45 3b bd
       -0.055761434 0.21840692 -0.24000539 -0.045720942

l2.weight f4 [64, 32]
000000 65 a3 03 40 f8 bd 04 40 e6 dd c0 3f e6 4e f0 3f
       2.0568478 2.0740948 1.5067718 1.8774078
000010 65 02 0e 40 13 ed 07 40 44 1d 0e 40 30 a7 ce 3f
       2.2188962 2.1238449 2.2205362 1.6144772
000020 6b 0a 0a 40 dc 6d 12 40 ff 37 66 3f 8a 44 04 40
       2.1568859 2.2879553 0.89929193 2.0666833
000030 dc 76 33 3f da 30 14 40 aa 55 d9 3f 7c cf a8 3f
       0.7010324 2.3154817 1.6979268 1.3188319
000040 5e cd d2 3f b2 80 0a 40 b3 65 05 40 6a cf ee 3f
       1.6468923 2.164105 2.0843322 1.8657048
000050 42 d5 17 40 f5 31 be 3f 67 8f 04 40 27 e3 03 3f
       2.3723912 1.4858996 2.0712526 0.5151848
000060 64 76 6f 3f 7f cc c2 3f b4 66 1e 40 f3 c9 0e 40
       0.93540025 1.5218657 2.4750185 2.231076
000070 98 eb f5 3f bc 76 0c 40 76 59 7a 3f 1f 9d 88 3f
       1.9212523 2.194747 0.97792757 1.067295
000080 68 74 ef 3d f1 b4 28 3f 87 6f c3 3d c3 7c 36 3e
       0.116921246 0.65901095 0.095427565 0.1782103
000090 d7 be e3 3e 18 94 ac 3f af 0f 45 be 0d 59 9f 3e
       0.44481537 1.3482695 -0.19244264 0.31122628
0000a0 7a b0 19 bd 81 b5 93 3e a7 95 b6 3d be fe a2 bd
       -0.037521817 0.28849414 0.08915263 -0.079587445
0000b0 ef f2 da bd 2e 67 b9 bd 3d dd d5 be 1d f4 64 3e
       -0.10690867 -0.09052883 -0.41770354 0.22358747
0000c0 a5 af 8e be a7 ba a1 3f 47 1d d7 3e 63 d0 1f 3f
       -0.2786838 1.2635087 0.42014524 0.6242735
0000d0 6f 52 6a 3d 55 6f fa 3d 2c 37 90 bf b7 14 80 be
       0.05720752 0.12228266 -1.1266837 -0.25015804
0000e0 4e 0e 96 3e 74 4b 5d 3d 33 1e 88 be 18 fa e6 3c
       0.2930779 0.054027036 -0.2658554 0.028195426
0000f0 22 e8 73 bf 19 e9 43 be d0 57 e0 3d d2 fa 17 3f
       -0.9527608 -0.19131888 0.10954249 0.59367096
000100 53 05 79 3d fd 11 a6 be b6 35 47 be 0a 70 d0 ba
       0.060796093 -0.324356 -0.19454083 -0.0015902531
000110 71 e9 b5 3c ff 02 d8 bd d7 b8 32 3e ab 88 6f be
       0.02220604 -0.105474465 0.17453323 -0.23391978
000120 87 b5 52 bd 71 65 2b bf 01 f6 cd be 44 5f 4c bc
       -0.05144265 -0.6695166 -0.4022675 -0.012473885
000130 89 ea e9 be df 77 ee bd 53 bc d4 be b8 5f 40 be
       -0.4568675 -0.11643957 -0.4154993 -0.18786514
000140 a2 80 ad be b7 ac 2d 3e 56 92 9f be ad dc a6 3e
       -0.33887202 0.16960417 -0.31166333 0.32590237
000150 a2 f3 f7 3c 9b 35 43 be aa c4 8d 3e 62 3a 0b bf
       0.03026754 -0.19063418 0.27689105 -0.5438596
000160 51 35 78 bf cd 33 9d 3e b5 ca 3d 3f ed d3 d1 bd
       -0.96956354 0.30703583 0.7413743 -0.102455
000170 d3 2d e3 be 5b 1e 7d 3e 82 fc d5 be 7a ef 00 be
       -0.443709 0.24718611 -0.4179421 -0.12591353
000180 b7 27 1b 3d 9a 41 67 be 91 3d 5a be ad 81 d1 bd
       0.037879672 -0.22583619 -0.21312548 -0.10229812
000190 fa d8 bd 3d 55 21 8a be bc 69 62 3d e3 1c ca 3e
       0.092699006 -0.26978555 0.055276617 0.39475164
0001a0 3d 8c e4 3e b5 44 e5 3e 5e ef 64 3e db 3a f9 3d
       0.44638243 0.44778982 0.22356936 0.12169429
0001b0 7a fb 55 3e c9 d3 9a bd f0 18 38 bf a5 13 fe bd
       0.20896712 -0.07559926 -0.7191305 -0.12406091
0001c0 2c 61 f1 be 02 ec d4 3d e2 58 da bd d0 79 bb be
       -0.4714445 0.103965774 -0.10661484 -0.36616373
0001d0 87 02 53 3e 68 7d 82 be ab 9c 09 bf 3c 7d d7 3e
       0.20606433 -0.25486302 -0.5375468 0.42087734
0001e0 5f 81 1e be 6a 50 69 be 90 1e a1 3e bd 89 9e bd
       -0.15479039 -0.22784582 0.3146863 -0.07741115
0001f0 fb eb 0f bf 3d 9b 29 3c 43 ed 6c 3e 5b 47 ba 3e
       -0.5621945 0.010351953 0.23137383 0.36382565
000200 1d 85 d6 3e c5 1c 95 3e 21 83 06 3f e4 b5 f6 bb
       0.41898432 0.29123512 0.52543837 -0.0075290073
000210 e1 c0 21 be 80 03 26 be cf a9 db bc be 5b 6f bc
       -0.15796234 -0.16212273 -0.02681437 -0.014609275
000220 9c c2 87 be ba bd 90 3d 51 ba 13 3e 78 9a 07 be
       -0.26515663 0.070674375 0.14426543 -0.13242519
000230 42 09 e3 3e 69 1d c5 bd b3 c6 26 bf c2 fc be bd
       0.44343 -0.0962475 -0.6514694 -0.093255535
000240 a1 43 8d 3d af 0a 5d 3d d5 88 f9 3c d6 51 4c 3e
       0.06897665 0.053965267 0.030460754 0.19953093
000250 09 c2 b8 3d 9e d6 18 3e a5 02 24 bf 9f 03 0f 3f
       0.09021384 0.1492562 -0.64066535 0.558649
000260 d0 e7 82 3e 72 cf c9 be 39 3f b5 be a8 34 da bd
       0.25567484 -0.3941608 -0.35399798 -0.10654575
000270 43 50 31 bd 2d 2d c1 3e 0f f2 3e 3e e4 e7 37 3e
       -0.043289434 0.3772978 0.18647026 0.17959553
000280 65 ad e8 be b6 49 ed bd f9 3b 5c 3f 24 02 52 3e
       -0.4544479 -0.11586325 0.8602901 0.20508629
000290 e9 e8 e3 bb 91 2d bc 3d 59 59 53 3f d0 b5 b7 3c
       -0.0069552553 0.091883786 0.8255821 0.022425562
0002a0 50 1a 45 3c 0b d7 cf 3e b6 af 88 3f 43 5c 93 be
       0.012030199 0.40593752 1.0678623 -0.28781328
0002b0 8a 70 e8 3e ba a1 05 bd 48 bb 95 3f 1a 3c bf 3e
       0.4539836 -0.032624938 1.1697779 0.3735054
0002c0 9d ff 35 3f 98 00 4b 3f b4 7c 2c 3f 39 dc dd bc
       0.7109316 0.7929778 0.6737778 -0.02708255
0002d0 45 7a 32 be 4d e9 87 3f 80 d7 c2 3e 60 be e7 3e
       -0.17429455 1.0618073 0.38055038 0.45262432
0002e0 40 4d a7 3e 79 03 de 3e 4a 46 96 bf c7 8b 7a 3f
       0.32676125 0.43362024 -1.17402 0.97869533
0002f0 39 7d 82 3e e6 b7 14 3f 7f 72 fa 3e bf bd 76 3f
       0.25486162 0.58093107 0.4891548 0.9638328
000300 ce b9 4c 3e b2 43 91 3e d3 57 68 3d 09 cb 77 3e
       0.19992754 0.2837196 0.05672438 0.24198546
000310 da 17 14 3d 48 a6 38 be d0 90 ac be 13 1b a3 3d
       0.03615556 -0.18032181 -0.33704233 0.07964148
000320 0d 1a 25 3e 8d 55 f5 be 01 34 ba 3e 62 2a c8 be
       0.16123219 -0.47916833 0.363678 -0.39094836
000330 34 da 00 3f 44 17 9f be 85 57 e2 be 98 ef 79 bd
       0.5033295 -0.31072438 -0.44207397 -0.06101951
000340 b1 76 01 3e ab 22 a7 3d 85 e6 8a be 08 dd d5 bd
       0.12642933 0.08160909 -0.27128997 -0.10442549
000350 6c 00 bd 3e 82 5f de be f5 27 ab be de 9c ed 3e
       0.36914384 -0.43432242 -0.33428922 0.46408743
000360 e1 c3 16 3f f2 7c a2 be fc 02 ab 3d 8f 2c cc 3d
       0.5889264 -0.3173595 0.083501786 0.099694364
000370 ce 4e 29 be 28 fd 86 bd 4d f7 93 3e 1f 8b d3 be
       -0.16533968 -0.065912545 0.28899613 -0.41317078
000380 39 55 93 3e 20 07 a3 3e eb e8 ba 3e 29 d8 0e 3f
       0.28775957 0.31841373 0.36505827 0.55798584
000390 1e d3 44 3e 1f 45 4e 3c be 24 ac 3e cb 92 b1 3e
       0.1922116 0.012589722 0.33621782 0.34682307
0003a0 70 e9 66 3e 79 0e 12 3f 72 d6 a5 3e 66 3a 93 3e
       0.22549987 0.57053334 0.3239017 0.28755492
0003b0 3d 7f 31 3f bf c9 e5 3e bb ed c8 bd 1a 4e c6 3e
       0.69334775 0.44880483 -0.098109685 0.38731462
0003c0 1c 62 42 3f b1 c2 41 3f c9 7d 4d 3d 4d 5e 02 3f
       0.75930953 0.756877 0.050168786 0.5092514
0003d0 2b 08 04 3f 4b a1 29 3f ab 8c a1 bd d1 b4 60 3f
       0.51574963 0.6626174 -0.078881584 0.87775904
0003e0 36 04 40 3f 30 d7 5f 3f c8 c0 2e 3d f4 91 18 bf
       0.75006425 0.87437725 0.04266432 -0.59597707
0003f0 56 a7 0c 3e 2c 86 36 3e c1 e9 62 3f 51 27 cc 3e
       0.13735709 0.1782462 0.8863793 0.39873746

l2.bias f4 [64]
000000 7e 50 cd 3f 82 e7 ce 3b 34 3e 3d bf fe 9a 02 3f
       1.6040189 0.006314219 -0.7392304 0.5101775
000010 c5 e0 80 3e 95 9d 22 bd 26 0d ad 3e db cd f3 3e
       0.25171486 -0.039701063 0.33799094 0.47617993
000020 6e 14 5d 3f 0a 1f c6 3f 76 60 76 3e 08 af b5 bd
       0.863593 1.5478222 0.24060234 -0.08871275
000030 db f4 46 3f 61 59 23 3f 50 23 27 bd b0 e5 28 3e
       0.7771737 0.63808256 -0.04080516 0.16493869
000040 9b ec 94 3e da 59 19 3f 57 a7 62 3f 3b 32 f6 bc
       0.29086766 0.5990273 0.8853659 -0.030053249
000050 a7 53 e6 3e 24 11 39 3f 5b 04 99 3e 10 2b 2e 3f
       0.44985697 0.7229178 0.29886135 0.6803446
000060 0d 7b e4 3b 35 ac 98 3e 43 01 f4 3d 00 3c db 3f
       0.0069726766 0.29818884 0.11914303 1.7127686
000070 c4 1b dc 3d 2f e1 a7 3e 65 e4 32 3c ed 83 ae 3d
       0.107474834 0.3278899 0.010918711 0.085212566
000080 d2 0d 24 3f ff 7b cb 3e c6 5a a6 bd b8 33 6b 3e
       0.6408359 0.3974304 -0.081227824 0.22968948
000090 33 ff 3b 3d 4f b7 8a bd 6d 1c 75 3f 3c 78 27 3f
       0.045897674 -0.067732446 0.957465 0.6541784
0000a0 5d 17 b6 3d 79 79 e5 3e bf 6b ad be 53 dd 45 3f
       0.08891175 0.4481924 -0.33871266 0.7729084
0000b0 cd 7a 0f 3f 25 18 d1 3e b2 2d dd 3e e6 31 f9 3e
       0.56046754 0.40838733 0.43198925 0.48670882
0000c0 b0 15 f8 3d 28 90 1c 3f 10 27 c2 3f dc 7d 18 3d
       0.121135116 0.61157465 1.5168171 0.037229404
0000d0 b8 b9 e5 3e 56 b8 e0 3d 38 62 6e bc 4f c4 e5 3d
       0.44868255 0.10972659 -0.014549784 0.112190835
0000e0 5d ec e6 be f7 21 8b 3e bb 43 77 3e 93 55 39 3b
       -0.45102206 0.2717435 0.24146931 0.0028279766
0000f0 3a fa 68 be 71 a7 de 3d 66 75 d1 3e aa ed 19 3f
       -0.22751704 0.10871781 0.4090988 0.6012827

l3.weight f4 [784, 64]
000000 69 fa 86 be 72 ce 1e bd 19 4b 05 bc 24 1e 3f be
       -0.26362923 -0.0387711 -0.00813558 -0.18663841
000010 52 5d 37 be 9b 99 06 be 7f 0b e5 bd 18 bf 99 bd
       -0.17906693 -0.13144533 -0.11183833 -0.07507151
000020 5d c3 01 be 8f ec 16 be 32 e3 2d be e7 e0 a2 3b
       -0.12672181 -0.14738677 -0.169812 0.004970658
000030 87 aa 56 bd 06 cf 0c 3d 92 27 66 bd 8a 98 f6 bc
       -0.05240872 0.03437712 -0.05619008 -0.030102033
000040 62 28 ce 3c 75 5e 76 3d 89 bb fe bd c3 36 4f bd
       0.02516574 0.060148675 -0.12438113 -0.050589334
000050 40 84 db bc 3a c2 c5 bb f7 88 0e be a3 e2 5c be
       -0.02679646 -0.0060351165 -0.13919435 -0.2157083
000060 67 78 07 be fc 1c f3 3b fc 5a 47 bd 9d 72 08 be
       -0.13229524 0.0074192267 -0.048670754 -0.13324971
000070 ab 41 36 be 0d f5 51 bd dc 50 a9 bd 14 84 fa bd
       -0.17798488 -0.05125909 -0.08267376 -0.12232223
000080 53 4f 11 be 15 54 fa bd cc 47 0d be 61 ac 2c be
       -0.14190416 -0.122230686 -0.1379692 -0.16862632
000090 11 d8 fe bd 5e 40 ee bd 91 1c 5a be 0e 16 af bd
       -0.12443555 -0.11633371 -0.2129996 -0.085491285
0000a0 2e 7b ef bd a5 82 2a be c9 e2 32 be 4c e9 24 be
       -0.116934165 -0.166514 -0.17469324 -0.1610462
0000b0 73 a1 29 be 24 4b cd bd 89 75 00 be 1e b7 0d be
       -0.16565494 -0.100240976 -0.12544836 -0.13839385
0000c0 bb a6 a1 be 2a c5 b8 bb 75 31 60 bd e6 c5 11 be
       -0.31572518 -0.005638738 -0.054734666 -0.14235649
0000d0 d4 f7 95 bb 9b a2 ab bd 45 de 08 bd 5c 56 d2 bd
       -0.0045766626 -0.08380624 -0.033415098 -0.10270378
0000e0 9f 3e 44 be 27 23 82 3d 1b 3a 7c bd 7d fd 4c bd
       -0.19164513 0.06354361 -0.06157885 -0.050046433
0000f0 2f dc 90 bd ba a6 2a be 8c 51 7b bd 7a e2 c1 bd
       -0.07073247 -0.16665164 -0.061357066 -0.09467025
000100 80 9c 81 be 41 8a 84 3b 11 5a 86 bd 91 fd 20 be
       -0.25314713 0.0040448015 -0.065601476 -0.15721728
000110 74 26 50 be 35 6d 7a bc f7 87 1c be 9e f4 4c 3c
       -0.20327169 -0.015284826 -0.15286241 0.012509493
000120 6e e4 4f be 03 bd 78 be 44 ba 42 be 4d ca 81 bd
       -0.20301983 -0.24290852 -0.19016367 -0.06337414
000130 c8 4e 4b bd 12 56 38 be 23 83 66 bd 2b 45 09 3d
       -0.04963568 -0.18001583 -0.056277405 0.03351323
000140 ec f0 2e 3d 46 b1 1d be 45 bd 65 be 0f 2f 0e 3c
       0.04271023 -0.15399656 -0.22435482 0.008678212
000150 4f 97 38 bd ee 5b 60 bc bb b7 aa bd 0c 20 f1 bd
       -0.045066174 -0.013693793 -0.08335825 -0.117736906
000160 a7 e7 b9 bc 82 38 b8 b9 ae 07 3f be 55 c6 80 be
       -0.022693468 -0.00035137316 -0.18655273 -0.25151315
000170 d6 3d 2f 3d ee 18 ab bd fa 7c 6b bc 64 7c 93 bc
       0.04278358 -0.08354364 -0.014373058 -0.01800365
000180 e7 e3 84 be f3 cb b7 3c 66 ed 24 be f3 94 09 be
       -0.25955126 0.022436118 -0.16106185 -0.13435726
000190 4e 63 28 be 98 01 50 be 37 21 28 be b5 46 02 be
       -0.16444132 -0.20313108 -0.1641892 -0.12722285
0001a0 31 29 4c bd e1 75 4d be a0 8e 6a bd 85 bc fd bc
       -0.04984397 -0.20064498 -0.057264924 -0.030973682
0001b0 e2 6b 35 be 68 a2 ee 3b 50 4a 1b be d6 97 50 3c
       -0.17716935 0.007282544 -0.15165067 0.012731513
0001c0 b4 df 0b bf 17 04 e8 bd a0 85 95 be 3e 22 c8 bc
       -0.5463822 -0.11328905 -0.2920351 -0.02443039
0001d0 e5 da 83 bd e5 77 84 bd 63 02 65 be 80 d0 0e bd
       -0.06438235 -0.064681806 -0.22364192 -0.03486681
0001e0 97 f7 39 be 91 c5 ca bd 9c f6 41 3c b0 f7 ed bd
       -0.18160854 -0.09900964 0.011838581 -0.11619508
0001f0 ea 7d df bd b6 c2 de bd 7a d7 aa bd 66 4a 27 be
       -0.10912688 -0.10876982 -0.0834188 -0.16336975
000200 37 01 ae be fb 5f 2b bd d8 7f 06 be d8 40 88 bd
       -0.33985302 -0.04183958 -0.13134706 -0.06652993
000210 ac ec 29 bd f8 06 12 be d2 de 56 3d 60 2f 4c be
       -0.041485474 -0.14260471 0.05245859 -0.19939947
000220 55 fa 23 be 9a 52 26 be 15 ed a2 bd 9a 5e 72 bc
       -0.16013463 -0.16242447 -0.07955376 -0.014793063
000230 07 77 45 be 97 23 bd bd 4a 0c 63 be 4a 09 b6 bd
       -0.19283687 -0.09235304 -0.22172657 -0.088884905
000240 be 36 1e bd 6c 0d 13 3d 85 c7 a1 be 35 c3 2f be
       -0.038626425 0.035901472 -0.31597534 -0.1716431
000250 70 6b 06 be 6c 95 ff bd 3e 4b f0 bc 1c f1 79 be
       -0.13126922 -0.12479672 -0.029332753 -0.24408382
000260 43 22 10 bd 33 2c d7 3b 7c 4d 97 bd c9 c3 de be
       -0.035188925 0.0065665483 -0.07387826 -0.43508747
000270 8a b2 45 bb d9 84 d5 bd f3 56 f0 bd 77 07 a7 bc
       -0.0030166232 -0.10425729 -0.11735334 -0.020389302
000280 79 b2 51 be 2a b4 48 be 9e 5c b3 bd 98 8b dd bd
       -0.20478238 -0.19599977 -0.087579 -0.10817641
000290 b9 3e a7 bd 0a 5a e8 bd 63 43 83 be 00 00 00 be
       -0.0816626 -0.113452986 -0.2563735 -0.125
0002a0 81 c9 84 bd f4 b0 ee bd ed e4 e8 bd 25 9f d4 bd
       -0.06483746 -0.11654845 -0.11371789 -0.10381917
0002b0 32 57 b4 3c ee ae 8a bd 0a da 1f 3c 77 5f 64 bd
       0.022014234 -0.067716464 0.009756574 -0.055755105
0002c0 41 e3 db be 96 34 77 bd 91 64 93 bd bc e8 05 bc
       -0.42946818 -0.060352884 -0.07196916 -0.008173164
0002d0 24 90 d1 bc d8 c2 8d bc a8 86 51 be f2 09 f6 bd
       -0.025581427 -0.017304823 -0.20461524 -0.12013616
0002e0 bf 5b 13 be c0 34 05 be d6 5d fb bd bd 92 00 bd
       -0.14390467 -0.13008404 -0.12273757 -0.03138994
0002f0 cb 9c 80 bc d8 7e 44 be 88 b3 4c be 97 b2 28 be
       -0.015699765 -0.19189012 -0.1999036 -0.16474377
000300 9f ee af bd ce f2 d1 bd 95 1a 9a 3d 1f f5 2b be
       -0.08590435 -0.102513894 0.07524601 -0.16792725
000310 b9 39 13 be d5 19 d5 ba 88 ab 12 3c c9 e4 81 3c
       -0.14377488 -0.0016258309 0.008952029 0.015856164
000320 88 41 39 be ac 37 88 be 07 98 92 3a 2e 90 a7 3d
       -0.18091404 -0.26604974 0.0011184224 0.08181797
000330 01 0a 1e be aa d9 c0 3c c4 b3 0d be b1 5b 75 bc
       -0.15433504 0.02354129 -0.13838106 -0.014975474
000340 d1 1a a6 bd 4c a8 42 bd 5e d6 51 be cd db 31 be
       -0.081105836 -0.04752378 -0.20491931 -0.17369004
000350 9c 9b 7d 3c 3b 22 a7 bc 5a 22 1d be d3 7a af bd
       0.015478995 -0.020402065 -0.15345135 -0.08568349
000360 80 f3 9f bd ac 31 2c be ac 8c de bd 37 46 1c be
       -0.07810116 -0.16815823 -0.10866675 -0.1526116
000370 b7 f0 f8 bd fe f0 9e bd a9 78 13 3d 03 b6 4d bd
       -0.12155288 -0.07760809 0.036003742 -0.050222408
000380 ce 61 16 be 0c 9e b4 bd 49 99 46 be 05 01 5c bd
       -0.14685747 -0.088192075 -0.19394411 -0.05371191
000390 90 99 1f bd 31 b6 91 bd 39 02 e5 bd b9 8e 35 be
       -0.038964808 -0.071148284 -0.111820646 -0.17730226
0003a0 a9 58 27 be 06 d3 02 be e7 63 08 3d 82 de 1f bd
       -0.16342415 -0.12775812 0.0332984 -0.03903056
0003b0 8a b0 d4 bd ed 12 2e be f7 36 60 3c fa 81 57 bd
       -0.10385235 -0.16999407 0.01368498 -0.05261419
0003c0 37 72 92 be 0e 10 f8 3c 7b 83 14 be ab da 0a be
       -0.28602764 0.030281093 -0.14503281 -0.13559978
0003d0 73 c7 37 be dd c4 ba bd f3 4f e9 3c 62 2c 32 be
       -0.17947178 -0.0911958 0.028480506 -0.17399743
0003e0 52 21 bc be cf 49 01 be da fc d1 3c 72 21 a2 3c
       -0.3674417 -0.12625812 0.025633264 0.019791339
0003f0 b9 07 28 3b 63 87 2a bd ff 90 bf 3c 32 eb 99 bc
       0.0025639369 -0.04163302 0.02338457 -0.018788908

l3.bias f4 [784]
000000 98 0a 1f be a8 2c 66 3d 18 dc 2b bd 1c 6d 22 bd
       -0.15531385 0.05619493 -0.041957945 -0.039654836
000010 c2 23 8a bd cc 70 80 bc 37 f1 7d 3d 4f a8 d8 bb
       -0.067451015 -0.015678786 0.06199762 -0.006611861
000020 de 85 67 3c 61 02 3c b8 f7 ae 14 be 84 69 fc 3c
       0.0141310375 -4.482491e-05 -0.14519869 0.030812033
000030 89 c8 87 bd 10 87 bd bb 2b 4e b1 bc 65 20 0e be
       -0.06630046 -0.005783923 -0.021643719 -0.13879545
000040 73 66 35 bc e9 d7 80 bd 30 4c de 3a 12 c8 aa bd
       -0.011071789 -0.062911816 0.0016959962 -0.08338942
000050 c7 98 29 bc 7b 79 e5 bd 54 d0 98 3c 9e d7 10 be
       -0.010351366 -0.11204811 0.018654026 -0.14144751
000060 ff c3 4f bd 81 ea 12 be ca 29 12 3d dd 39 66 bd
       -0.050724026 -0.14347269 0.035684384 -0.056207526
000070 7a 1c 97 3a ab 6c a4 bd 7b 65 05 be 41 56 fa bd
       0.0011528872 -0.08028539 -0.13026993 -0.12223483
000080 7f 6c da bd 5c 78 0c be d9 90 3d bb 08 a8 b1 3d
       -0.10665225 -0.13717788 -0.0028925447 0.086746275
000090 69 da 59 bd 88 d4 bc bd e4 8e 15 be 57 f0 23 be
       -0.053186808 -0.092202246 -0.1460529 -0.16009651
0000a0 7d f4 c2 3e 98 5b 31 be 05 c8 5d bd 77 1d 3e bc
       0.38077155 -0.17320096 -0.05414583 -0.011603705
0000b0 65 ce a9 3d 2f 7d ad bc bd bb a5 3d 0d 17 b2 3d
       0.0829132 -0.021177856 0.08092449 0.08695803
0000c0 66 36 03 bd 8e 70 2f 3d 21 f3 28 be 54 db a2 bd
       -0.0320343 0.04283195 -0.16498996 -0.0795199
0000d0 09 55 82 3d a4 7d 2d bc cc ff 21 be 15 7d 1b 3d
       0.063638754 -0.010589037 -0.15820235 0.037961084
0000e0 06 9b 0c 3d 9a 42 93 3d 16 5e 35 be b0 02 19 3d
       0.03432753 0.071904376 -0.17711672 0.03735608
0000f0 bc 5a 8e bd 4e 9c af bc 1c fc e1 bd de fa 3e bd
       -0.069509 -0.021436837 -0.11034414 -0.046625964
000100 e6 a0 f0 3c 1d 36 f5 3e a1 7a 59 3d 03 29 ad be
       0.029373597 0.47892848 0.053095464 -0.33820352
000110 07 81 fd bc 6d 47 d0 be 56 1b 0d bd 25 70 63 bf
       -0.030945314 -0.40679494 -0.034449898 -0.88842994
000120 72 93 44 bf e6 59 08 bd 41 f0 fd be 94 bd 75 be
       -0.76787484 -0.03328886 -0.49597362 -0.239981
000130 84 32 00 be e1 8a 90 bd c0 68 1a be cd ea 3a bb
       -0.1251927 -0.07057739 -0.15079021 -0.00285213
000140 2f 9e c3 bd 9d e2 05 be 56 5a 21 be be 80 93 bc
       -0.095516555 -0.13074727 -0.15757117 -0.018005725
000150 a1 da 2b bc 28 d1 e2 bd 84 72 fc bd 8c 5e d7 bd
       -0.010489137 -0.1107505 -0.123265296 -0.1051608
000160 98 4d 55 3d b2 9b 35 3c 87 28 d9 bd c8 f7 98 be
       0.052075952 0.011084484 -0.10603433 -0.29876542
000170 c8 d8 8e 3d 19 ff 2f be cd ec e3 3c 2e 0a 49 bf
       0.069749415 -0.17187156 0.027822876 -0.7853116
000180 17 77 1e 3d ea d9 4c 3e d0 aa 45 bf a4 eb 65 be
       0.03868779 0.20005003 -0.77213764 -0.22453171
000190 42 84 bc 3e 41 49 35 bf e3 59 a7 be 8e ee e1 3e
       0.36819655 -0.708149 -0.32685766 0.44127315
0001a0 8a 92 94 bd 5b 89 98 be 64 9d a2 3e d8 7d 84 3d
       -0.072545126 -0.29792294 0.31760705 0.06469315
0001b0 8c e2 83 3d 1f 82 83 bd 72 5d 84 3d e0 5b 9a 3b
       0.06439695 -0.06421303 0.06463136 0.0047106594
0001c0 b7 b8 3d bd da 11 4a 3d 72 02 8d bd 16 0e 9f bd
       -0.046318736 0.04933343 -0.06885232 -0.077663586
0001d0 71 88 89 bc 23 7e f4 bd 85 ef 9b bc 44 0e 28 bf
       -0.016788693 -0.11938121 -0.01903511 -0.6564677
0001e0 ec 86 86 bd 88 62 20 3f be 17 50 3d 99 82 10 3f
       -0.06568703 0.62650347 0.050803892 0.56449276
0001f0 95 30 5b be 06 10 0a bf e0 e9 03 bf da ab f6 bd
       -0.21405251 -0.539307 -0.5152874 -0.12044497
000200 a5 3f 75 3e db 62 30 bf 9e eb 17 bf 5d fa 18 3e
       0.2395006 -0.6890084 -0.593439 0.14939256
000210 d5 fb fb 3c 48 b0 2c 3f 2e 5e c6 3c 41 b4 88 3e
       0.030759731 0.67456484 0.02421483 0.26700023
000220 2e 59 7e be 34 2f af 3c 4c bb a9 bd 5b b5 16 be
       -0.24838707 0.021384813 -0.08287677 -0.14717619
000230 3a b2 13 3d 11 e3 82 3d 14 07 14 bc 39 1c a7 bd
       0.036058642 0.06390966 -0.009034891 -0.0815968
000240 78 dc ad bd 70 3a b1 3e 9e 4b 3e 3e 1b 61 12 bf
       -0.08489317 0.34614897 0.18583533 -0.5717942
000250 ea ba 11 3f 69 7b f2 bb 38 aa 96 bd df a5 02 3f
       0.56925833 -0.0073999655 -0.073566854 0.5103435
000260 d0 52 37 be 7f a1 14 be 87 62 50 be 95 40 10 3d
       -0.17902684 -0.14514731 -0.20350085 0.03521784
000270 d7 e5 58 3d 81 6c 32 bd 0d 65 57 3d b9 49 96 3e
       0.052953567 -0.04356051 0.052586604 0.2935312
000280 b6 df ec bb 2b b8 ed 3e 8b 5c b5 3e 91 0b 15 3f
       -0.007228817 0.46429572 0.35422167 0.58220774
000290 4f fa 4a 3e 98 6e be 3e 31 16 de 3d 15 7e ea bd
       0.19822048 0.3719375 0.108440764 -0.114498295
0002a0 0c 20 99 bd bf 95 9e 3d b0 f9 14 be da 56 83 bd
       -0.074768156 0.077434056 -0.14548373 -0.0641305
0002b0 6a d5 12 be ae 75 ec be 34 4f 33 be 93 5f 80 be
       -0.14339224 -0.46183532 -0.17510682 -0.25072917
0002c0 96 f0 7f be 04 9d 81 be f2 e6 fc bd 14 37 1f 3e
       -0.2499412 -0.25315106 -0.12348737 0.15548354
0002d0 ac 23 16 3e 60 58 cd bc 55 71 ea 3d 49 8d bd bd
       0.14662045 -0.025066555 0.114473976 -0.09255464
0002e0 04 21 30 be 19 0a fd be 5a bf 13 be 11 2b 84 3e
       -0.17200094 -0.49421766 -0.14428464 0.25814107
0002f0 d8 f9 2f 3e 6b 08 7c be ec ce 0d bd 21 d8 23 be
       0.17185152 -0.24612586 -0.034621164 -0.16000415
000300 7d af 73 be 4d f3 a4 bb 57 a9 e4 bd 1e 2b c2 3b
       -0.23797412 -0.0050338865 -0.111651115 0.00592555
000310 8d 38 5f bd 63 84 bf bd 21 97 db bc a6 fc ab 3e
       -0.05449729 -0.09351423 -0.026805462 0.33591193
000320 aa 6f cb be d2 80 fd 3e 31 16 bf be 5e cb 7f 3e
       -0.3973363 0.49512345 -0.37321618 0.24979922
000330 d6 ef fd bd 86 1a 50 be 7b 6f e2 3e 47 2d 6e 3e
       -0.12399261 -0.20322618 0.44225678 0.2325946
000340 57 34 3e be bb 80 86 bc 79 27 9a bd ad 60 8d 3d
       -0.18574654 -0.016418805 -0.0752706 0.06903205
000350 95 74 41 bd e0 79 3f be 04 1e 9e 3c 41 b7 87 bd
       -0.047230322 -0.18698835 0.019301422 -0.0662675
000360 37 97 27 bd b0 af ce 3e 82 44 07 3f b5 b5 24 3f
       -0.040915694 0.40368414 0.5283891 0.6433976
000370 1f cb 4b bf 5f 0e 58 bf 04 bb 9e 3e 5d 9d 3b 3d
       -0.79606813 -0.8439693 0.31002057 0.04580437
000380 83 25 2f bd d6 ee 99 bc 59 7e f2 bc 04 b9 b4 bd
       -0.042760383 -0.018790644 -0.029601263 -0.088243514
000390 a4 24 ed 3e 0b 7c 2b bf 53 b9 91 3e f6 23 0d 3f
       0.46317017 -0.6698615 0.28461704 0.55133
0003a0 3d e5 fe bd fb 98 ec 3d 4b 42 2c bd 50 3b 6d be
       -0.124460675 0.11552616 -0.04205541 -0.23167157
0003b0 33 3d c9 be d9 bd 29 be 13 9a fe be 58 1a ee be
       -0.39304504 -0.16576327 -0.49726924 -0.46504474
0003c0 00 ff 32 bd 6c e7 93 3d 85 20 e6 bd 48 01 08 3e
       -0.04370022 0.072218746 -0.11236671 0.13281739
0003d0 0c ae a2 be 1e ed 45 be d8 c4 de 3e b9 2c f1 be
       -0.31773412 -0.19328734 0.43509555 -0.47104433
0003e0 f0 1b 31 3f e5 11 1b 3f 44 99 94 be f9 7f 9a bd
       0.69183254 0.6057418 -0.29023182 -0.0754394
0003f0 00 79 38 bd 47 ad d2 bd 16 42 9b be c6 fb 1c be
       -0.04503727 -0.10286956 -0.30323857 -0.15330419
