encoder.pt (torch_old, 212635 bytes, 8 tensors)

l1.weight f4 [64, 784]
0.021842033 0.0034237243 -0.0047890972 -0.0052776076 0.028983507 0.0015538074 0.024831567 -0.0149454065
-0.018030014 0.035604034 0.012809802 0.026338547 -0.022738362 -0.039591342 -0.032038767 0.0005517087
-0.013529403 -0.011987772 -0.02422633 0.03058831 -0.0116389785 0.0118605755 0.030845437 0.03160281
0.031848814 -0.013736522 -0.004137486 -0.020681161 -0.033260435 0.018794082 -0.027469223 -0.003920231
0.0279628 0.02819501 -0.022049863 -0.014271631 -0.12936625 -0.15925282 -0.0964139 -0.24845766
-0.32860678 -0.17312413 0.027905442 -0.120642364 -0.0031523688 0.102779604 0.21308883 0.09774309
-0.044154804 -0.1283068 -0.045027573 -0.19869971 0.0004679896 -0.018557753 -0.02801553 -0.0054106973
-0.029219037 -0.010004908 0.08118109 -0.2069839 -0.23286209 -0.11167247 0.029735276 -0.090709165
-0.03691604 -0.03160777 -0.1905368 -0.45148003 -0.39726892 -0.36949807 -0.13733417 0.05516296
0.12816617 0.21845503 0.14311004 0.24422953 0.25481948 0.24351497 0.14812972 0.013155546
0.086404234 0.027003717 -0.021636087 -0.016268518 -0.0024977326 0.004576903 0.07605943 -0.22083797
-0.22061534 -0.038332663 -0.072422326 -0.23652652 -0.24076757 -0.23109959 -0.4099299 -0.42375025
-0.4825801 -0.4580109 -0.19843888 0.028121358 0.16829962 0.1417661 0.19201231 0.32027963
0.3788289 0.35665512 0.3507108 0.2673124 0.2820817 0.22192255 0.063084766 -0.0035778172
0.033462513 0.03485753 -0.01626203 -0.11168981 -0.123115346 -0.2561679 -0.3727059 -0.47448266
-0.3848249 -0.3605074 -0.28684616 -0.2845999 -0.31859097 -0.2591036 -0.12729397 -0.10944968
-0.09562487 -0.015083942 0.043168247 0.110958986 0.13074328 0.18352057 0.16133627 0.11185918
0.20636056 0.17050636 -0.0911638 0.059239656 0.028885227 -0.034241505 -0.12538671 -0.12269472
-0.12786147 -0.43956295 -0.387392 -0.36096337 -0.36419302 -0.25237828 -0.17439722 -0.16563973
-0.18300456 -0.15051872 -0.06511338 -0.022813102 -0.006566456 -0.043761007 -0.028862711 0.008467726
0.042008467 0.08421416 0.028908802 -0.02786839 0.04554054 0.16518354 0.04778787 0.25260356
-0.010928392 -0.048870474 -0.01566394 -0.13422856 -0.3184315 -0.36907884 -0.45128337 -0.41047028
-0.38870686 -0.2696908 -0.123108454 -0.10024129 -0.1176832 -0.067787625 -0.026777793 0.05370315
0.059035115 0.13273303 0.056699213 0.020873994 0.03616014 0.0755192 0.06826634 -0.020186549
0.05771054 0.12648742 0.21450529 0.21879083 -0.006799761 -0.26866764 -0.006365588 -0.19263701
-0.3519299 -0.30597648 -0.36167195 -0.32554564 -0.3491714 -0.29829562 -0.20434928 -0.121166624
-0.061705414 -0.03568534 0.04804025 0.11567339 0.12477672 0.11177346 0.070528634 0.0068271803
0.062002588 0.048335508 0.027681423 0.009985616 0.072679445 0.12579314 0.1460168 0.15195975
-0.12180652 -0.39079037 -0.047181863 -0.046320055 -0.29544017 -0.27512005 -0.41567716 -0.42589048
-0.3805374 -0.22786513 -0.2406225 -0.0962512 -0.015461861 0.12088488 0.20475465 0.13066505
0.1198636 0.061517484 -0.004489056 0.00162498 -0.015411448 0.0010913671 -0.049057033 -0.012177308
0.027750503 0.07711539 0.038496077 0.07369624 -0.07398626 -0.23110206 0.12362607 -0.05008082
00000000: 10ee b23c 9060 603b dced 9cbb c8ef acbb
00000010: d26e ed3c 20a9 cb3a 926b cb3c 94dd 74bc
00000020: aeb3 93bc 89d5 113d 34e0 513c f0c3 d73c
00000030: cd45 babc 882a 22bd 153b 03bd 8ba0 103a
00000040: 6eaa 5dbc 5c68 44bc 4c76 c6bc 5694 fa3c
00000050: 6ab1 3ebc dc52 423c 92af fc3c f371 013d
00000060: e773 023d 260f 61bc c093 87bb 8a6b a9bc
00000070: 183c 08bd 0cf6 993c 2307 e1bc 4875 80bb
00000080: 3e12 e53c 39f9 e63c eaa1 b4bc 8fd3 69bc
00000090: 9678 04be 2c13 23be a774 c5bd af6b 7ebe
000000a0: 263f a8be 7447 31be f499 e43c 5813 f7bd
000000b0: f997 4ebb 1d7e d23d f533 5a3e 872d c83d
000000c0: abdb 34bd dc62 03be d56e 38bd f077 4bbe
000000d0: 805c f539 6e06 98bc d380 e5bc 384c b1bb
000000e0: c35c efbc a0eb 23bc 4542 a63d 96f3 53be
000000f0: 6673 6ebe 89b4 e4bd 6597 f33c bac5 b9bd
00000100: 4635 17bd 2677 01bd 141c 43be 6428 e7be
00000110: d566 cbbe da2e bdbe 54a1 0cbe 8ef2 613d
00000120: fe3d 033e adb2 5f3e 708b 123e 4e17 7a3e
00000130: b377 823e fd5b 793e 51af 173e 5c8a 573c
00000140: b4f4 b03d e636 dd3c 2a3e b1bc 8e45 85bc
00000150: 00b1 23bb d8f9 953b 0cc5 9b3d 5923 62be
00000160: fde8 61be b602 1dbd 2852 94bd 0234 72be
00000170: c68b 76be 5fa5 6cbe 55e2 d1be cbf5 d8be
00000180: bd14 f7be 6880 eabe 9033 4bbe c35e e63c
00000190: bc56 2c3e 222b 113e e09e 443e b1fb a33e
000001a0: ddf5 c13e 809b b63e 5e90 b33e 2cdd 883e
000001b0: 036d 903e aa3f 633e 9632 813d d079 6abb
000001c0: fd0f 093d c5c6 0e3d f337 85bc a1bd e4bd
000001d0: e623 fcbd 7028 83be 4fd3 bebe 64ef f2be
000001e0: c507 c5be 6d94 b8be 80dd 92be 14b7 91be
000001f0: 5b1e a3be 3aa9 84be 5a59 02be 2727 e0bd
00000200: f9d6 c3bd a322 77bc 30d1 303d 773e e33d
00000210: 91e1 053e d1ec 3b3e 5635 253e 6d16 e53d
00000220: 2f50 533e 3899 2e3e 16b4 babd 48a5 723d
00000230: b6a0 ec3c d240 0cbd 6065 00be 5f47 fbbd
00000240: 1eee 02be 650e e1be 3f58 c6be 31d0 b8be
00000250: 8277 babe ba37 81be 2f95 32be 769d 29be
00000260: 8c65 3bbe 9421 1abe 2a5a 85bd 8be2 babc
00000270: 6d2b d7bb be3e 33bd 7e71 ecbc 38bc 0a3c
00000280: 1211 2c3d 7978 ac3d 27d2 ec3c 404c e4bc
00000290: b888 3a3d e025 293e 37bd 433d 4155 813e
000002a0: 000d 33bc 682c 48bd aa51 80bc 3673 09be
000002b0: 7409 a3be e7f7 bcbe 9d0e e7be 2929 d2be
000002c0: 9604 c7be ea14 8abe 4920 fcbd 4e4b cdbd
000002d0: e403 f1bd 3dd4 8abd 1a5d dbbc d6f7 5b3d
000002e0: cece 713d 2beb 073e 6f3d 683d f0ff aa3c
000002f0: a81c 143d cfa9 9a3d 39cf 8b3d 435e a5bc
00000300: e361 6c3d eb85 013e 46a7 5b3e b40a 603e
00000310: 88d0 debb ce8e 89be 6c96 d0bb a342 45be
00000320: 2830 b4be f3a8 9cbe 112d b9be ebad a6be
00000330: 98c6 b2be 34ba 98be f040 51be 3526 f8bd
00000340: d1be 7cbd cb2a 12bd dac5 443d 2ce6 ec3d
00000350: f08a ff3d 7ce9 e43d 5171 903d 8ab6 df3b
00000360: 6df6 7d3d 74fb 453d 27c4 e23c b69a 233c
00000370: f6d8 943d ebcf 003e 6e85 153e 569b 1b3e
00000380: b275 f9bd ad15 c8be c541 41bd 19ba 3dbd
00000390: ef43 97be 89dc 8cbe a3d3 d4be 510e dabe
000003a0: ccd5 c2be 7a55 69be bf65 76be 591f c5bd
000003b0: bf53 7dbc 7e92 f73d 34ab 513e 0fcd 053e
000003c0: 0c7b f53d c2f9 7b3d ee18 93bb 48fd d43a
000003d0: 4c80 7cbc 340c 8f3a 07f0 48bd 5583 47bc
000003e0: 0655 e33c acee 9d3d 10ae 1d3d 0eee 963d
000003f0: 1c86 97bd 05a6 6cbe aa2f fd3d 8c21 4dbd

l1.bias f4 [64]
0.21515118 0.7510044 0.230074 0.1162702 -0.09124713 0.124648854 -0.029575154 0.47971803
0.32046258 0.38347712 0.47311643 0.017721593 0.12242979 -0.033019904 -0.0026914224 -0.018221736
-0.009070902 0.080612436 0.7399039 -0.10020562 0.3607216 0.1603947 0.013805331 -0.0031409597
0.57987666 -0.003133416 0.06860891 -0.022212608 0.0015335773 0.021494867 0.2320925 -0.0017990241
0.4294682 0.199008 -0.041002147 -0.021255504 -0.010490719 -0.25266242 0.00012436279 0.067811176
0.64069057 -0.012359952 -0.0015438516 -0.0309829 -0.038379606 0.69697607 -0.017053446 -0.025320765
0.3858336 0.00730963 0.03994438 0.12930948 0.68455994 -0.012278417 0.3637917 0.01428352
0.34001198 0.4473539 0.0028843803 0.50726426 0.020934595 0.4567265 0.22760479 -0.013024468
00000000: 9750 5c3e d341 403f 8598 6b3e 121f ee3d
00000010: c6df babd e647 ff3d 9847 f2bc 9a9d f53e
00000020: ac13 a43e 1d57 c43e 513c f23e e02c 913c
00000030: 78bc fa3d e13f 07bd 9362 30bb c045 95bc
00000040: 1f9e 14bc 2218 a53d 586a 3d3f 9b38 cdbd
00000050: 80b0 b83e 823e 243e c12f 623c 8fd8 4dbb
00000060: cc72 143f ff59 4dbb d482 8c3d 37f7 b5bc
00000070: 5102 c93a 0116 b03c a8a9 6d3e 3bcd ebba
00000080: 42e3 db3e c1c8 4b3e def1 27bd 0620 aebc
00000090: 44e1 2bbc f85c 81be 6267 0239 96e0 8a3d
000000a0: 4c04 243f 6581 4abc 105b caba dacf fdbc
000000b0: ef33 1dbd 066d 323f abb3 8bbc 7e6d cfbc
000000c0: fb8b c53e 9f85 ef3b b89c 233d b469 043e
000000d0: 523f 2f3f 6a2b 49bc e842 ba3e 6d05 6a3c
000000e0: 0d16 ae3e 920b e53e df07 3d3b 12dc 013f
000000f0: 077f ab3c 0ed8 e93e 3b11 693e 9464 55bc

l2.weight f4 [32, 64]
-0.1903816 0.10384788 -0.40787378 0.23030753 0.09677966 0.20211633 0.092525184 0.033921517
-0.10346637 -0.12391053 0.14670448 -0.015174914 0.041407194 0.013810677 -0.08735542 0.09182421
-0.16461301 0.028889956 -0.17644052 0.17138131 -0.4221818 -0.3394612 -0.017102899 -0.071622066
-0.10189441 0.038052272 -0.3250871 -0.11568228 -0.14592598 0.005493339 -0.10966892 0.104944006
-0.5640793 0.058673654 0.008557864 0.09644113 -0.052524794 0.10074269 -0.04416919 0.18182309
-0.24526925 -0.04313488 -0.10219766 0.024528435 -0.06138861 -0.11383052 0.028332232 0.060661174
0.16310851 -0.0056526847 0.03625852 0.15792783 0.38083372 -0.029768998 -0.09604852 0.033086956
0.24820764 0.18471587 0.059620768 0.30175287 -0.09408904 -0.13876179 -0.17422192 -0.07867318
0.17479675 -0.10313 0.036617674 0.22929329 -0.027181268 -0.1463066 -0.008773308 -0.0827595
0.16653681 -0.09868384 0.07062059 -0.107325666 -0.27477166 0.037846763 0.030215586 0.04570967
-0.12501307 0.13260356 0.016357504 -0.06557173 -0.052215125 0.034859657 0.04976902 0.0665528
-0.22267313 0.12066041 0.011635555 -0.048772205 0.08465664 -0.08614516 -0.0058352984 -0.06632982
-0.011530508 0.03585866 -0.015640365 0.015814027 -0.086594716 -0.2030064 -0.089546025 0.36002928
0.32185882 0.11153821 -0.09049218 0.088795975 -0.05471297 0.056283146 0.013463212 0.0007226443
0.08221234 0.029635364 0.11898945 0.027071001 0.012132483 -0.091239534 -0.20759249 0.10271556
-0.080204986 0.20172152 -0.08047476 0.019047458 -0.11890905 -0.1718965 -0.019205073 0.06556194
-0.14659558 -0.3228804 0.3780131 -0.011468799 -0.008066695 0.29095232 -0.04422382 -0.09904883
-0.055288117 0.24589147 -0.030741384 0.114983566 0.11405788 0.0058176885 -0.10860024 0.072916314
-0.09799289 0.39371544 0.12905096 0.026246317 -0.050731607 0.33764824 0.030425126 -0.094391234
0.038509898 -0.07821322 -0.06986609 -0.036627036 -0.12744012 0.0145695405 0.13398482 -0.11575036
-0.004085909 0.2947325 0.08322064 0.012928171 0.06122947 0.29299405 0.55358404 0.12675035
-0.015713451 -0.12350798 0.03440869 -0.106721535 0.0073548416 -0.048366822 -0.015779046 -0.0641306
-0.21910547 -0.100115314 0.11197219 0.20002705 -0.34657928 0.09511081 -0.16571143 -0.07151472
-0.23949887 -0.16765824 -0.0073978673 0.15562879 0.016243627 -0.17082998 -0.03204985 -0.04941908
-0.030571165 -0.13579671 0.13102646 -0.18030056 0.09534282 -0.04117117 -0.112343214 -0.09880542
-0.045701277 -0.1654151 0.036337394 0.0046150386 0.053503826 0.014354918 -0.046907358 -0.09813296
-0.13140082 0.02193422 0.017729944 -0.14047669 -0.30738783 0.029478697 0.11498398 0.0018462305
0.07276115 0.033388454 0.27209556 0.042672995 -0.0689598 -0.0341408 0.03730544 -0.06932644
0.012481987 -0.39974138 0.07172258 -0.0839383 -0.0055195754 -0.11207884 0.097351454 -0.09504497
0.18504588 -0.037605394 -0.018875135 -0.07290533 -0.030124923 -0.0014668696 -0.10362194 -0.02617816
-0.020584853 0.04018487 0.11271907 0.0038721233 0.070266336 -0.08450667 0.11628105 -0.07605884
-0.2136357 0.17499496 0.106847316 0.2987609 0.12158612 -0.23126365 -0.043725196 -0.04303331
00000000: 65f3 42be 33ae d43d d5d4 d0be bdd5 6b3e
00000010: 6a34 c63d 95f7 4e3e d87d bd3d 4af1 0a3d
00000020: 2de6 d3bd cec4 fdbd b339 163e 34a0 78bc
00000030: 979a 293d 2e46 623c 66e7 b2bd 550e bc3d
00000040: 5090 28be a1aa ec3c d3ac 34be 957e 2f3e
00000050: 3628 d8be dccd adbe 611b 8cbc 97ae 92bd
00000060: 04ae d0bd b3dc 1b3d d171 a6be d5ea ecbd
00000070: 9f6d 15be 7801 b43b 199a e0bd e2ec d63d
00000080: 8067 10bf c953 703d 4936 0c3c ed82 c53d
00000090: 3d24 57bd 2f52 ce3d c1ea 34bd d52f 3a3e
000000a0: dd27 7bbe 33ae 30bd 024d d1bd dbef c83c
000000b0: a072 7bbd fa1f e9bd ff18 e83c da77 783d
000000c0: eb05 273e 283a b9bb d083 143d d5b7 213e
000000d0: a3fc c23e 1dde f3bc 16b5 c4bd 3086 073d
000000e0: 252a 7e3e 2826 3d3e e834 743d 5a7f 9a3e
000000f0: c1b1 c0bd 9217 0ebe 3b67 32be 671f a1bd
00000100: ebfd 323e d235 d3bd 6afc 153d dccb 6a3e
00000110: 40ab debc 66d1 15be ecbd 0fbc d07d a9bd
00000120: a088 2a3e c11a cabd 87a1 903d 8fcd dbbd
00000130: dfae 8cbe 3505 1b3d ad86 f73c 103a 3b3d
00000140: 6d03 00be 3ac9 073e 2c00 863c 794a 86bd
00000150: 87df 55bd 00c9 0e3d 9ada 4b3d d64c 883d
00000160: 6d04 64be ce1c f73d 0ea3 3e3c 5dc5 47bd
00000170: 7660 ad3d e06c b0bd 0836 bfbb eed7 87bd
00000180: 75ea 3cbc 88e0 123d 3920 80bc 6b8c 813c
00000190: 9258 b1bd e9e0 4fbe e863 b7bd c255 b83e
000001a0: aeca a43e 256e e43d f753 b9bd aada b53d
000001b0: b51a 60bd 2889 663d ce94 5c3c d76f 3d3a
000001c0: f15e a83d ddc5 f23c beb0 f33d 01c4 dd3c
000001d0: 52c7 463c cbdb babd 2093 54be 895c d23d
000001e0: 8342 a4bd 1690 4e3e f3cf a4bd 6a09 9c3c
000001f0: 9786 f3bd a305 30be f553 9dbc 5745 863d
00000200: 271d 16be 9450 a5be ef8a c13e a1e7 3bbc
00000210: 2c2a 04bc b4f7 943e 0924 35bd 1dda cabd
00000220: cb75 62bd f9ca 7b3e 5bd5 fbbc 817c eb3d
00000230: 2e97 e93d 4fa2 be3b cd69 debd 2655 953d
00000240: 7fb0 c8bd 1295 c93e ef25 043e 8402 d73c
00000250: f2cb 4fbd 3be0 ac3e 1d3e f93c 3150 c1bd
00000260: 8ebc 1d3d 412e a0bd f415 8fbd 3b06 16bd
00000270: aa7f 02be 15b5 6e3c 5133 093e 860e edbd
00000280: 17e3 85bb 2ee7 963e 956f aa3d aed0 533c
00000290: c1cb 7a3d 5103 963e afb7 0d3f d8ca 013e
000002a0: 7fb9 80bc c0f1 fcbd 20f0 0c3d d290 dabd
000002b0: e200 f13b 4a1c 46bd 0f43 81bc e756 83bd
000002c0: 2f5d 60be 4209 cdbd ad51 e53d e4d3 4c3e
000002d0: d772 b1be 75c9 c23d 42b0 29be 4f76 92bd
000002e0: 313f 75be 9aae 2bbe cf69 f2bb 275d 1f3e
000002f0: 5b11 853c 0eee 2ebe b446 03bd a96b 4abd
00000300: 6170 fabc 4b0e 0bbe cd2b 063e b6a0 38be
00000310: 1943 c33d 1aa3 28bd 3314 e6bd 7f5a cabd
00000320: 4331 3bbd 9362 29be 85d6 143d c039 973b
00000330: d426 5b3d e430 6b3c ee21 40bd eff9 c8bd
00000340: f08d 06be 65af b33c 633e 913c 1fd9 0fbe
00000350: f061 9dbe 4f7d f13c b97c eb3d 37fd f13a
00000360: cc03 953d 55c2 083d 1c50 8b3e e1c9 2e3d
00000370: cc3a 8dbd 39d7 0bbd 97cd 183d 05fb 8dbd
00000380: 3f81 4c3c e7aa ccbe 4ae3 923d d8e7 abbd
00000390: 8edd b4bb 9789 e5bd 3360 c73d f0a6 c2bd
000003a0: ab7c 3d3e 1d08 1abd 07a0 9abc 644f 95bd
000003b0: 8bc8 f6bc fa43 c0ba bd37 d4bd 9573 d6bc
000003c0: 91a1 a8bc e498 243d 41d9 e63d 73c3 7d3b
000003d0: cce7 8f3d d511 adbd c224 ee3d bdc4 9bbd
000003e0: 51c3 5abe e131 333e c4d2 da3d 30f7 983e
000003f0: 2502 f93d 61d0 6cbe 3119 33bd b243 30bd

l2.bias f4 [32]
-0.15384518 0.30277902 -0.339544 0.22472754 -0.39493608 0.07771559 0.25591242 -0.07139242
0.0022010575 0.13873401 -0.4357045 -0.2521405 -0.1139104 -0.089693755 0.33753717 0.16405113
0.51367635 0.1387156 0.06742577 0.4545339 0.32440442 0.2858126 0.23633564 0.26388443
-0.1607694 -0.11223391 -0.5396761 0.28353396 0.005533656 0.03852708 0.14349732 -0.15744781
00000000: 9789 1dbe da05 9b3e b6d8 adbe fa1e 663e
00000010: 1035 cabe 5a29 9f3d f406 833e 3036 92bd
00000020: 9e3f 103b 4a10 0e3e a914 dfbe 8f18 81be
00000030: db49 e9bd 5cb1 b7bd acd1 ac3e 05fd 273e
00000040: 4b80 033f 760b 0e3e 8616 8a3d abb8 e83e
00000050: 5618 a63e 0756 923e f801 723e dc1b 873e
00000060: bca0 24be e4da e5bd 3628 0abf 5d2b 913e
00000070: ac53 b53b 92ce 1d3d f6f0 123e 003a 21be

l3.weight f4 [8, 32]
-0.0062580714 0.03773277 0.18224527 -0.05980416 0.06903152 -0.034462426 0.05224513 0.044841737
0.03297755 -0.048108418 -0.278393 -0.2311828 -0.027535418 -0.06985733 -0.02286444 -0.046216737
-0.05341485 -0.022403145 0.07023594 -0.11538193 -0.07049375 0.015259097 -0.026111474 0.045100812
-0.1319172 -0.008802797 0.036312196 -0.07852611 0.06569271 -0.044689152 0.0430408 -0.013676975
0.0025614742 0.03469827 0.018291073 -0.121463776 0.014645871 0.027597168 0.003934856 -0.006386655
-0.046530794 -0.097325295 -0.12275692 -0.12337468 -0.03331574 -0.089185305 0.11502154 0.03842488
-0.08548754 0.022615695 0.54251313 -0.19897768 -0.050923776 -0.061707746 0.12814747 -0.0038516156
-0.20010401 -0.002093266 0.1249436 0.07694532 0.0900155 0.1127916 0.08831179 -0.006853494
-0.015539525 -0.07794248 -0.012425926 -0.025443016 -0.028866341 0.011931475 0.020587655 -0.11639847
-0.048354283 0.05357667 0.27446118 0.37988946 0.01958648 0.10042884 -0.021258263 -0.06290051
0.033673927 -0.05403123 -0.04758941 -0.09740481 -0.09064531 0.07440063 0.09684113 0.12783152
0.16179511 0.06902994 0.07563134 -0.029759683 -0.047534175 -0.11503408 0.063041076 0.04133036
-0.0017541994 0.11318703 -0.119669996 -0.05444376 0.01405027 -0.018697843 0.021074396 -0.14448936
-0.010373885 0.0040089088 -0.43226674 -0.41815752 -0.14591295 -0.03523166 -0.04368662 -0.0582882
-0.013418227 -0.013050538 -0.11469646 -0.04457931 -0.010818017 0.028322123 0.046690848 -0.05656899
-0.0752354 -0.0595651 -0.13810463 0.0035455723 0.022219473 0.0028534257 0.010710063 -0.012166801
0.033504616 -0.019613525 -0.040436517 -0.13096157 0.038580306 0.007292605 0.019776857 -0.05419433
0.011300104 -0.017820138 -0.023741387 -0.113140106 -0.100344285 -0.06066799 -0.028917955 0.05297154
0.04335192 -0.034352425 -0.15758923 0.34618843 -0.06588473 0.05529136 -0.12939613 -0.05241258
0.039982334 0.012584949 0.07065067 0.06740728 -0.019289114 0.05643226 0.13475738 -0.04415075
-0.047926046 0.08350372 -0.014362763 0.01833927 -0.062425915 -0.024990913 -0.0070256023 0.086521916
-0.00027724885 0.083573565 0.0017484465 -0.4890814 -0.0426083 0.012048806 0.06592572 0.101161554
-0.058904406 0.112020545 0.2749255 0.06267603 0.09575285 0.08646852 0.09203811 -0.022238888
0.114141546 -0.0014502092 -0.036296222 0.008499571 0.055364657 0.1581253 -0.048986085 -0.04748807
0.04434044 0.09811464 0.03836508 -0.0565236 -0.0071111927 -0.03387373 -0.0077114664 -0.03524193
-0.043919403 -0.042002752 -0.2671565 -0.084124394 -0.045694094 -0.014003551 0.057105683 0.03321755
0.01307698 -0.055329036 -0.13081723 0.20899221 0.009826294 0.043700524 0.07355374 0.17565297
-0.029034233 -0.10111703 -0.35929844 0.011102291 -0.13588728 -0.092969134 0.018337412 -0.031015985
-0.028947419 0.23110344 -0.007117 -0.1269873 0.23931511 0.027076868 0.024539823 -0.18264534
-0.049069017 -0.037938703 0.5875823 0.40258557 -0.3112587 0.13563189 0.0057982868 -0.11085078
-0.012696538 -0.05325075 -0.26522923 -0.109178536 0.12774722 0.072479 0.08864912 -0.16357876
0.10657637 -0.07119323 -0.11792392 -0.13667522 -0.12569393 -0.07829931 -0.02051064 -0.059572022
00000000: 8210 cdbb ad8d 1a3d 819e 3a3e 35f5 74bd
00000010: 6660 8d3d 7928 0dbd fdfe 553d f8ab 373d
00000020: 7813 073d 550d 45bd 8789 8ebe 2fbb 6cbe
00000030: f591 e1bc 5c11 8fbd 354e bbbc c34d 3dbd
00000040: 88c9 5abd cd86 b7bc dcd7 8f3d 5c4d ecbd
00000050: 075f 90bd 4b01 7a3c bbe7 d5bc a1bb 383d
00000060: 4d15 07be 9b39 10bc 19bc 143d 4cd2 a0bd
00000070: e689 863d f90b 37bd 8d4b 303d 6415 60bc
00000080: 68de 273b c61f 0e3d 29d7 953c 00c2 f8bd
00000090: 3cf5 6f3c 7513 e23c f7ef 803b 2547 d1bb
000000a0: 1397 3ebd 7c52 c7bd fb67 fbbd ddab fcbd
000000b0: 1676 08bd c9a6 b6bd 6a90 eb3d 6863 1d3d
000000c0: 1714 afbd 8d44 b93c 24e2 0a3f cec0 4bbe
000000d0: 7395 50bd 43c1 7cbd 1739 033e 636b 7cbb
000000e0: 11e8 4cbe 2d2f 09bb 6ee2 ff3d 8295 9d3d
000000f0: 0c5a b83d 48ff e63d d0dc b43d 4693 e0bb
00000100: 7e99 7ebc 4fa0 9fbd 1c96 4bbc df6d d0bc
00000110: 1b79 ecbc 3c7c 433c 71a7 a83c 5262 eebd
00000120: 240f 46bd 3673 5b3d 2d86 8c3e df80 c23e
00000130: d373 a03c a3ad cd3d cf25 aebc fcd1 80bd
00000140: aced 093d da4f 5dbd 1ded 42bd 2c7c c7bd
00000150: 40a4 b9bd 5c5f 983d a454 c63d 44e6 023e
00000160: 9ead 253e 925f 8d3d 9be4 9a3d 94ca f3bc
00000170: 32b3 42bd fd96 ebbd ae1b 813d 064a 293d
00000180: 2aed e5ba 9ace e73d 8b15 f5bd 6c00 5fbd
00000190: 1b33 663c 382c 99bc 36a4 ac3c 05f5 13be
000001a0: 3af7 29bc 2a5d 833b 1152 ddbe be18 d6be
000001b0: 346a 15be 134f 10bd bef0 32bd 9cbf 6ebd
000001c0: 20d8 5bbc ecd1 55bc fae5 eabd cb98 36bd
000001d0: 0d3e 31bc cc03 e83c e73e 3f3d e3b4 67bd
000001e0: 0415 9abd 89fa 73bd 4d6b 0dbe d55c 683b
000001f0: 9d05 b63c 8a00 3b3b 4379 2f3c 4357 47bc
00000200: 233c 093d 8bac a0bc c3a0 25bd ca1a 06be
00000210: 6206 1e3d cef6 ee3b 1303 a23c e0fa 5dbd
00000220: 1224 393c 8afb 91bc 4c7d c2bc 00b6 e7bd
00000230: 4e81 cdbd 007f 78bd 59e5 ecbc aff8 583d
00000240: c891 313d 21b5 0cbd 125f 21be 9c3f b13e
00000250: 93ee 86bd 3179 623d 6b80 04be 93ae 56bd
00000260: 84c4 233d 1a31 4e3c 4cb1 903d d40c 8a3d
00000270: 3404 9ebc 8325 673d d7fd 093e 6bd7 34bd
00000280: 1a4e 44bd 0004 ab3d cb51 6bbc 3d3c 963c
00000290: 51b2 7fbd beb9 ccbc 0637 e6bb 6732 b13d
000002a0: b65b 91b9 9e28 ab3d 212c e53a e168 fabe
000002b0: 0a86 2ebd 5b68 453c 1004 873d ca2d cf3d
000002c0: bf45 71bd 076b e53d 09c3 8c3e 4a5c 803d
000002d0: 121a c43d 6816 b13d 7a7e bc3d 542e b6bc
000002e0: 0bc3 e93d f214 beba 59ab 14bd c941 0b3c
000002f0: 0dc6 623d 99eb 213e a2a5 48bd da82 42bd
00000300: 529e 353d 54f0 c83d b424 1d3d 4a85 67bd
00000310: 0205 e9bb 2ebf 0abd 78b0 fcbb d859 10bd
00000320: d5e4 33bd 140b 2cbd bdc8 88be 6949 acbd
00000330: bb29 3bbd 266f 65bc a6e7 693d 200f 083d
00000340: d440 563c b3a0 62bd f4f4 05be 0e02 563e
00000350: 77fe 203c 52ff 323d 58a3 963d 5fde 333e
00000360: 33d9 edbc 7216 cfbd f7f5 b7be 62e6 353c
00000370: 0926 0bbe 9a66 bebd 5738 963c 3c15 febc
00000380: 2323 edbc 61a6 6c3e b935 e9bb f508 02be
00000390: 050f 753e 4fd0 dd3c bd07 c93c 6107 3bbe
000003a0: 98fc 48bd 9d65 1bbd cb6b 163f b21f ce3e
000003b0: 4d5d 9fbe 16e3 0a3e 8eff bd3b bc05 e3bd
000003c0: 2405 50bc 751d 5abd 20cc 87be ff98 dfbd
000003d0: 2bd0 023e df6f 943d ab8d b53d 3181 27be
000003e0: b644 da3d c2cd 91bd 1982 f1bd 97f4 0bbe
000003f0: e9b5 00be 635b a0bd ee05 a8bc cb01 74bd

l3.bias f4 [8]
-0.19924611 -0.0073327282 -0.09100564 0.21156316 -0.35879597 0.28310937 0.14717846 -0.4365843
00000000: 2c07 4cbe 6247 f0bb 2a61 babd 03a4 583e
00000010: 1bb4 b7be b6f3 903e f3b5 163e fa87 dfbe

h_log_sigma.weight f4 [8, 32]
-0.3434086 -0.15568545 -0.12354016 -0.22113374 -0.033563524 0.0969286 -0.5645601 -0.07422912
-0.35488898 -0.005047954 -0.79817575 -0.2913278 -0.02811761 -0.09431498 -0.27379858 -0.1477774
-0.97026014 -0.7270133 -1.2571826 -0.828103 -0.04743644 -0.33887398 -0.9038864 -0.5680427
-0.29408938 -0.07714662 -1.2086871 0.04510332 0.18051264 0.13547902 -0.45968127 -0.22492607
-0.32427716 -0.1031793 -0.1484625 -0.16799004 -0.21058418 0.038841754 -0.47655374 0.1479433
-0.38909087 -0.20199884 -0.62235916 -0.5613184 -0.16290575 0.06341219 0.0012034264 -0.1352406
-0.9706253 -0.6198634 -0.8743544 -0.7112989 -0.13859062 -0.17778262 -0.77507347 -0.46941867
-0.3631684 -0.05395249 -1.1774703 0.028804714 0.0064073205 0.01403208 -0.69879204 -0.3274303
-0.374783 -0.19692473 -0.17403913 -0.31920552 -0.29205626 0.01288163 -0.48676157 0.036100455
-0.2578889 -0.042974617 -0.7946884 -0.28828925 -0.26179093 0.17396879 -0.08871552 -0.32608348
-0.7999796 -0.68675566 -0.9870058 -0.382879 -0.14360861 -0.2224177 -0.52334076 -0.32728693
-0.3953252 -0.23237944 -0.9723352 -0.0716221 -0.020384094 0.084561326 -0.6091405 -0.3536168
-0.36396888 0.047309957 -0.14417708 -0.3508962 -0.2832912 -0.07719152 -0.57886654 -0.14377876
-0.38092348 -0.17069076 -0.40052584 -0.26522803 -0.057849754 0.07897468 -0.0883572 -0.38819838
-0.72785467 -0.363085 -1.0988188 -0.42134893 -0.34589282 -0.21179625 -0.94641 -0.523684
-0.23487063 -0.056190364 -0.8774148 -0.054880314 0.09283747 -0.10760805 -0.7581739 -0.38627824
-0.44657922 -0.05578963 -0.059603 -0.33994454 -0.028177653 0.07154176 -0.4182688 0.18554401
-0.3213462 -0.40330386 -0.74160707 -0.6617665 -0.050493106 -0.06826674 -0.30703416 -0.057934
-1.0006832 -0.6831781 -1.1596104 -0.8852698 -0.130606 -0.11196891 -0.94881666 -0.32584736
-0.3552874 0.024855223 -1.2084066 -0.17732738 -0.10897854 -0.14553538 -0.7687718 -0.35747677
-0.26499528 -0.00609817 -0.24006729 -0.1985308 -0.09548269 -0.020450143 -0.5692545 -0.09127484
-0.39672542 -0.30155522 -0.6431445 -0.54512364 -0.020040277 -0.17221986 -0.14856456 -0.30836412
-0.83305955 -0.3576876 -0.86700106 -0.6344804 -0.12914507 -0.046400126 -0.58085114 -0.3798117
-0.109127305 -0.031371336 -0.8446228 0.0790495 0.09119017 -0.13218138 -0.51351345 -0.42699796
-0.38564855 -0.18975191 -0.10849919 -0.21122435 -0.00067138235 0.09978012 -0.484509 -0.10195522
-0.317422 -0.36656746 -0.8078182 -0.54889154 0.07015718 0.036233783 -0.027541384 -0.21753989
-1.0326067 -0.9198245 -0.4736171 -0.67105675 -0.06940705 -0.059349667 -0.59350157 -0.57489586
-0.22962305 -0.120445974 -0.8494738 -0.035538677 -0.16429663 -0.15264918 -0.28180176 -0.42620808
-0.27103838 -0.038575336 -0.054527923 -0.36691666 -0.12571178 -0.04799199 -0.5064718 0.11391341
-0.36222827 -0.1676329 -0.79308826 -0.5962276 -0.025606303 0.10428957 -0.032944325 -0.10590003
-0.7953341 -0.2638763 -0.83139664 -0.5055264 -0.19229333 -0.14440013 -0.6225858 -0.49392003
-0.2804317 -0.111414574 -0.80153495 -0.18284367 -0.090353705 -0.1233559 -0.5591124 -0.2627594
00000000: 41d3 afbe 026c 1fbe a002 fdbd e270 62be
00000010: e879 09bd 8082 c63d 0387 10bf 7005 98bd
00000020: 02b4 b5be 4f69 a5bb 3f55 4cbf eb28 95be
00000030: e756 e6bc 3628 c1bd 542f 8cbe f552 17be
00000040: f862 78bf 8b1d 3abf 5ceb a0bf 8ffe 53bf
00000050: b64c 42bd e480 adbe 1965 67bf 3f6b 11bf
00000060: e292 96be 0cff 9dbd 42b6 9abf 42be 383d
00000070: 4ed8 383e 03bb 0a3e 585b ebbe 0553 66be
00000080: a807 a6be ab4f d3bd 8e06 18be 9505 2cbe
00000090: 61a3 57be 8818 1f3d dafe f3be 737e 173e
000000a0: eb36 c7be c9d8 4ebe ee52 1fbf 90b2 0fbf
000000b0: c4d0 26be 40de 813d 4abc 9d3a 837c 0abe
000000c0: e67a 78bf 5eaf 1ebf b1d5 5fbf af17 36bf
000000d0: b3ea 0dbe a60c 36be 376b 46bf a557 f0be
000000e0: 35f1 b9be 49fd 5cbd 59b7 96bf ddf7 eb3c
000000f0: 80f4 d13b cfe6 653c 09e4 32bf f2a4 a7be
00000100: 8fe3 bfbe a3a6 49be 5037 32be e86e a3be
00000110: 6688 95be 790d 533c d038 f9be 12de 133d
00000120: 040a 84be 2706 30bd b370 4bbf a69a 93be
00000130: 7609 86be e024 323e 7cb0 b5bd 6af4 a6be
00000140: 77cb 4cbf 38cf 2fbf 69ac 7cbf b708 c4be
00000150: 230e 13be 77c1 63be a9f9 05bf 2792 a7be
00000160: 1168 cabe e0f4 6dbe f6ea 78bf 9cae 92bd
00000170: 8bfc a6bc 7d2e ad3d a2f0 1bbf 430d b5be
00000180: 215a babe 16c8 413d 28a3 13be aba8 b3be
00000190: 8b0b 91be 9616 9ebd 9930 14bf bd3a 13be
000001a0: 6708 c3be 8fc9 2ebe b911 cdbe f8cb 87be
000001b0: ddf3 6cbd 7abd a13d 9ff4 b4bd f0c1 c6be
000001c0: af54 3abf 47e6 b9be 18a6 8cbf 0cbb d7be
000001d0: dd18 b1be 1ee1 58be ed47 72bf 2810 06bf
000001e0: ed81 70be de27 66bd 429e 60bf 2eca 60bd
000001f0: 9221 be3d 9c61 dcbd af17 42bf 43c6 c5be
00000200: 08a6 e4be ab83 64bd 4622 74bd 360d aebe
00000210: d2d4 e6bc 7c84 923d 5427 d6be 40ff 3d3e
00000220: 7d87 a4be d87d cebe f6d9 3dbf 8869 29bf
00000230: dcd1 4ebd 6fcf 8bbd 9533 9dbe 344c 6dbd
00000240: 6316 80bf c3e4 2ebf 1d6e 94bf 0ba1 62bf
00000250: 94bd 05be f54f e5bd a6e5 72bf 77d5 a6be
00000260: 3be8 b5be 2e9d cb3c 11ad 9abf 4f95 35be
00000270: 2430 dfbd 3a07 15be 3bce 44bf 3207 b7be
00000280: 76ad 87be 28d3 c7bb 33d4 75be a84b 4bbe
00000290: 6e8c c3bd 0f87 a7bc aaba 11bf 4eee babd
000002a0: 981f cbbe 7265 9abe 1ea5 24bf 398d 0bbf
000002b0: 822b a4bc 675a 30be 4f21 18be e7e1 9dbe
000002c0: 6443 55bf d422 b7be c8f3 5dbf 4f6d 22bf
000002d0: 9b3e 04be 0f0e 3ebd a9b2 14bf ae76 c2be
000002e0: 237e dfbd 3b7f 00bd 3339 58bf b4e4 a13d
000002f0: e9c1 ba3d 8e5a 07be 9e75 03bf 7a9f dabe
00000300: ba73 c5be 534e 42be d334 debd 324b 58be
00000310: b5ff 2fba 8559 cc3d 9011 f8be e6cd d0bd
00000320: 2385 a2be bbae bbbe 2ccd 4ebf 2884 0cbf
00000330: 91ae 8f3d e069 143d 789e e1bc c7c2 5ebe
00000340: 752c 84bf 9e79 6bbf f17d f2be 60ca 2bbf
00000350: 4925 8ebd a318 73bd b8ef 17bf 602c 13bf
00000360: 4e22 6bbe 61ac f6bd 1d77 59bf 0191 11bd
00000370: 603d 28be 1150 1cbe 5248 90be f237 dabe
00000380: 8bc5 8abe 2c01 1ebd ac58 5fbd 80dc bbbe
00000390: 97ba 00be 4093 44bd 23a8 01bf 6f4b e93d
000003a0: fc75 b9be f5a7 2bbe d507 4bbf 5fa2 18bf
000003b0: 4fc4 d1bc c595 d53d a1f0 06bd 1de2 d8bd
000003c0: 049b 4bbf cb1a 87be 69d6 54bf 2e6a 01bf
000003d0: 8be8 44be a1dd 13be c861 1fbf 16e3 fcbe
000003e0: be94 8fbe 532d e4bd 6531 4dbf 5f3b 3bbe
000003f0: 5d0b b9bd 05a2 fcbd fe21 0fbf 6688 86be

h_log_sigma.bias f4 [8]
0.6855125 0.44948766 0.6173367 0.38319752 0.21465497 0.38037732 0.3761086 0.412256
00000000: bf7d 2f3f 3f23 e63e c709 1e3f 7732 c43e
00000010: 83ce 5b3e d1c0 c23e 4e91 c03e 3813 d33e
